model.tflite (tflite, 1616 bytes, 3 tensors)

sequential/dense_1/MatMul/ReadVariableOp/transpose f4 [16, 1]
000000 c9 3e ef be 5a a9 a0 bd 33 25 76 be 21 c8 d2 3e
       -0.4672759 -0.07844801 -0.24037628 0.4116831
000010 38 23 5b be 06 b7 00 3f 1f 60 e8 3d d7 99 cc be
       -0.21400154 0.5027927 0.11346459 -0.3996112
000020 ad 84 f4 bb fd 04 e6 be 75 43 0f be 7a 0f 94 3d
       -0.0074621052 -0.4492568 -0.13990577 0.072295144
000030 f7 c1 6c 3e 2e d4 ea bc c9 af a2 be 2b ce f9 be
       0.23120867 -0.028665628 -0.31774738 -0.48790106

sequential/dense_1/MatMul_bias f4 [16]
000000 83 ad dc bc 2b 25 80 3d 78 79 41 3c a3 50 02 3b
       -0.026938206 0.06257089 0.011808746 0.001988449
000010 5e 8d 4d 3d 8b 8c 69 3a b4 42 71 bc 16 37 81 bc
       0.050183646 0.0008909187 -0.014725376 -0.015773337
000020 18 98 05 bc d3 9c e6 bb a0 42 63 3d 1a 2b 5f bc
       -0.008153938 -0.007037738 0.05548346 -0.013621116
000030 2a c0 d3 b9 7b f4 b9 bc 66 08 a2 3b 32 ed a7 bc
       -0.0004038823 -0.022699585 0.004944849 -0.020498846

sequential/dense_2/MatMul/ReadVariableOp/transpose f4 [1, 16]
000000 47 ed 6b 3e 38 01 ff be 7d 93 de bd f1 37 84 3e
       0.23039733 -0.49805617 -0.10867975 0.2582393
000010 7b 8e d1 be 6b 7c 00 3e af 26 e7 be ea 6d 01 3e
       -0.40929016 0.12547462 -0.451467 0.12639585
000020 b0 5b a1 3d b1 08 1c 3d f8 76 e4 be da 2d d6 be
       0.07878816 0.038094226 -0.44622016 -0.41831857
000030 28 43 2f bd 18 0e 60 3e 77 a6 87 bd ea 60 2a 3e
       -0.042788655 0.21880376 -0.066235475 0.16638532
